safe_bertopic/topic_embeddings.safetensors (safetensors, 273496 bytes, 1 tensors)

topic_embeddings f4 [89, 768]
-0.0030644855 -0.023753721 -0.013852967 -0.023998601 -0.027242275 0.011318581 -0.031254686 0.010519266
0.015371838 -0.00658699 -0.030074203 -0.00638574 -0.029440429 -0.007831539 -0.0015846295 0.0186612
0.03714215 0.004629428 -0.04399235 0.0093244985 0.0040756324 -0.021581369 -0.02048516 0.008167426
-0.003063093 -0.028109115 -0.01287236 0.0024264858 -0.031730946 -0.038210418 0.020847416 -0.0250068
-0.028784113 -0.016096579 -0.03182061 -0.018890826 -0.02792786 -0.012153006 -0.026448378 -0.031821713
0.01821489 -0.056321785 -0.04399537 -0.009709288 -0.023259437 -0.04457887 -0.048846573 -0.013820646
-0.0216073 -0.011031782 -0.0102559645 0.0033159968 -0.009394935 0.024923693 0.015364051 -0.022679502
0.02867232 0.0019299281 -0.02509172 0.002506103 0.012331714 -0.0008092309 -0.018058019 -0.022677366
-0.036281083 0.0073596863 -0.021077631 -0.013575614 -0.027360342 -0.016673723 -0.01760009 -0.02712232
-0.023585036 0.0010388909 -0.01688579 -0.0156230405 -0.024696197 -0.02496984 0.00053692504 -0.01944125
-0.01899395 0.026434919 -0.00073297234 0.0054376167 -0.019530019 -0.012486511 0.01041226 -0.009535121
0.0037281099 -0.014090163 -0.013854213 -0.02515232 -0.0510685 -0.016782137 0.035209607 -0.017858675
0.003929023 0.0036750354 -0.0013020089 -0.027691737 0.004937862 0.012075399 -0.004634291 -0.016579082
-0.013557506 -0.031921897 -0.019215873 -0.005487625 -0.017457435 -0.010386858 -0.018620715 -0.026096726
0.014415655 -0.043619752 -0.028020438 -0.018452778 -0.01648302 -0.021992084 0.01363307 0.0058905496
-0.038076293 0.0027252857 0.009879749 -0.024450528 -0.023890631 -0.016840333 -0.001341135 0.0028083704
-0.030982891 -0.027136313 -0.014474077 0.012656047 -0.010571564 -0.021804167 0.010928862 -0.027830116
-0.008058866 0.008750765 -0.0072820517 -0.006482605 -0.0014347727 0.0046662847 -0.016615238 0.0031815248
-0.010426851 -0.0005956044 0.01950767 -0.0093153035 -0.001973471 -0.00824682 -0.024678031 0.0064605265
-0.0038734248 -0.0051665837 -0.012733659 -0.0019499386 0.01145247 -0.005094874 -0.03591937 -0.0069865035
0.0032593238 -0.024603618 0.006487418 -0.0034908536 -0.024913063 0.013568529 0.03207654 -0.019898174
-0.008434783 0.0028824802 -0.029936878 0.010038205 -0.002308553 0.013887706 -0.033357874 -0.008700794
-0.0029510048 -0.014757174 -0.014292781 -0.003962339 -0.00803804 0.0043005897 -0.01547379 -0.023630638
-0.00010948732 -0.008861576 -0.05408203 -0.031292476 0.00032741597 -0.001081403 -0.014159107 -0.027442912
-0.038328484 -0.009712594 0.0015730783 0.0031808992 -0.0105752405 -0.035595894 -0.00024044531 -0.0064074607
-0.018646797 0.0021914996 -0.034224715 -0.015596361 0.015700158 -0.05309969 -0.01527158 0.0055063046
-0.033580616 -0.010492529 0.0016149657 -0.003454802 -0.007691173 -0.011849911 0.0008208417 -0.01106823
-0.09968038 -0.008170518 0.0062807943 -0.0058396985 -0.007717501 0.022393996 0.0028846005 -0.0102249365
-0.008440449 -0.018096924 0.027055176 -0.03587986 -0.042737573 0.011248923 -0.004022011 -0.03231136
-0.028722046 -0.015216962 0.013614618 -0.029528808 -0.01881289 -0.006488206 -0.018851705 -0.008148446
-0.009553877 -0.024985638 0.029135318 -0.0034095356 -0.02386322 0.018065406 -0.01420634 -0.013140608
-0.01537218 -0.02350357 -0.024950676 -0.034752425 -0.01245166 -0.016793258 0.021701386 0.008132194
00000000: 89d5 48bb 2a97 c2bc 8ef7 62bc b798 c4bc
00000010: 312b dfbc 9271 393c ea04 00bd 0059 2c3c
00000020: 29da 7b3c add7 d7bb 2d5e f6bc 783f d1bb
00000030: 0e2d f1bc db4f 00bc 58b3 cfba 5fdf 983c
00000040: 5e22 183d 75b2 973b 5331 34bd c8c5 183c
00000050: e28c 853b 69cb b0bc 7fd0 a7bc abd0 053c
00000060: 2cbe 48bb 1645 e6bc 97e6 52bc ad05 1f3b
00000070: 4ff8 01bd 8782 1cbd 33c8 aa3c 10db ccbc
00000080: a9cc ebbc f9dc 83bc 5456 02bd efc0 9abc
00000090: f8c8 e4bc 671d 47bc 45aa d8bc 7c57 02bd
000000a0: 6537 953c acb1 66bd 7d34 34bd b513 1fbc
000000b0: 938a bebc 5598 36bd 5813 48bd fe6f 62bc
000000c0: cb01 b1bc a6be 34bc a208 28bc 3251 593b
000000d0: 37ed 19bc c62c cc3c 80b9 7b3c 5dca b9bc
000000e0: 37e2 ea3c a4f5 fc3a 278d cdbc 6e3d 243b
000000f0: f50a 4a3c 9122 54ba 69ee 93bc e2c5 b9bc
00000100: 799b 14bd 8629 f13b ffaa acbc 416c 5ebc
00000110: cc22 e0bc 5597 88bc 102e 90bc a12f debc
00000120: 6835 c1bc 652b 883a 1154 8abc c8f7 7fbc
00000130: ae4f cabc 8d8d ccbc 6ec0 0c3a 4243 9fbc
00000140: 3399 9bbc 0b8e d83c f124 40ba 092e b23b
00000150: 6bfd 9fbc 3994 4cbc 2f98 2a3c 3239 1cbc
00000160: 4e53 743b 6dda 66bc c8fc 62bc 3d0c cebc
00000170: 342d 51bd b17a 89bc f337 103d 5b4c 92bc
00000180: 09bf 803b ddd8 703b 2ba8 aaba c8d9 e2bc
00000190: cacd a13b e5d7 453c 40db 97bb dbd0 87bc
000001a0: 4d20 5ebc 89c0 02bd 9b6a 9dbc 89d1 b3bb
000001b0: e502 8fbc a42d 2abc 788a 98bc cdc8 d5bc
000001c0: a42f 6c3c a0aa 32bd 1e8b e5bc 482a 97bc
000001d0: 6607 87bc be28 b4bc 3d5d 5f3c 8305 c13b
000001e0: e3f5 1bbd b59a 323b acde 213c 794c c8bc
000001f0: 49b6 c3bc bdf4 89bc 06c9 afba a30c 383b
00000200: d5cf fdbc f94c debc ae24 6dbc 4f5b 4f3c
00000210: 5a34 2dbc a79e b2bc f80e 333c fcfb e3bc
00000220: 5509 04bc 5e5f 0f3c 479e eebb 086c d4bb
00000230: fc0e bcba a2e7 983b ae1c 88bc 2181 503b
00000240: 62d5 2abc 5622 1cba 8dce 9f3c 379f 18bc
00000250: 5955 01bb ac1d 07bc 9529 cabc d3b2 d33b
00000260: 49d9 7dbb 724c a9bb d6a0 50bc 1595 ffba
00000270: 24a3 3b3c e7f2 a6bb 3020 13bd 0aef e4bb
00000280: 619a 553b 878d c9bc 6894 d43b cec6 64bb
00000290: 7b16 ccbc 894e 5e3c b162 033d 7f01 a3bc
000002a0: 0b32 0abc fee7 3c3b 2f3e f5bc 4977 243c
000002b0: 184b 17bb 4389 633c 44a2 08bd c68d 0ebc
000002c0: a565 41bb 13c8 71bc 452c 6abc 82d6 81bb
000002d0: fcb1 03bc f6eb 8c3b c785 7dbc 0a95 c1bc
000002e0: 8f9c e5b8 2530 11bc 1e85 5dbd 8a2c 00bd
000002f0: 07a9 ab39 ddbd 8dba 99fb 67bc f5cf e0bc
00000300: 54fe 1cbd 9221 1fbc c02f ce3a a276 503b
00000310: c643 2dbc 00cd 11bd 0c20 7cb9 adf5 d1bb
00000320: 2bc1 98bc 439f 0f3b 372f 0cbd e187 7fbc
00000330: 9e9d 803c 0f7f 59bd a635 7abc 3b6e b43b
00000340: d48b 09bd dbe8 2bbc 42ad d33a f669 62bb
00000350: 3c06 fcbb 2126 42bc c12d 573a 8557 35bc
00000360: 3a25 ccbd a3dd 05bc 1fcf cd3b f15a bfbb
00000370: 17e3 fcbb 9d73 b73c 910b 3d3b 7e86 27bc
00000380: cf49 0abc 0040 94bc d1a2 dd3c c3f6 12bd
00000390: 980d 2fbd 674d 383c 13cb 83bb eb58 04bd
000003a0: 7f4a ebbc 9150 79bc d90f 5f3c 66e6 f1bc
000003b0: 7d1d 9abc 049b d4bb e46e 9abc 0f81 05bc
000003c0: dd87 1cbc aeae ccbc 31ad ee3c 8472 5fbb
000003d0: cd7c c3bc e7fd 933c b5c1 68bc b44b 57bc
000003e0: 99db 7bbc 8f8a c0bc 5c65 ccbc 8f58 0ebd
000003f0: 0c02 4cbc 0492 89bc 1bc7 b13c e53c 053c
